gat_recommendation_model.pth (torch, 76812 bytes, 8 tensors)

conv1.att_src f4 [1, 2, 16]
1.3784677 -1.4272212 3.5162473 2.8202035 -0.722964 -5.2208405 0.7634368 -0.26667282
0.96403176 -2.32845 -1.8099527 2.6578658 -3.554661 -3.3172202 -1.7412387 -2.5180678
-1.904387 -0.34663993 -2.479348 -0.35412386 4.3632126 1.2252995 -0.34786278 -2.3291996
-2.69518 -2.8591058 3.490644 -3.5324442 -3.9405434 -2.7583463 -0.105515584 -1.9475355
00000000: a171 b03f 2faf b6bf 320a 6140 377e 3440
00000010: 2b14 39bf 2011 a7c0 9870 433f 5789 88be
00000020: c9ca 763f 5305 15c0 88ac e7bf 791a 2a40
00000030: 917f 63c0 564d 54c0 e9e0 debf 0628 21c0
00000040: f4c2 f3bf ca7a b1be a3ad 1ec0 b94f b5be
00000050: 709f 8b40 9dd6 9c3f 121b b2be 9b11 15c0
00000060: d47d 2cc0 97fb 36c0 b666 5f40 9113 62c0
00000070: dd31 7cc0 bf88 30c0 8e18 d8bd d848 f9bf

conv1.att_dst f4 [1, 2, 16]
0.8714974 -1.4540029 1.0599827 2.6471312 1.2528377 1.1496583 1.6596384 3.0884228
3.1558099 0.5433382 -2.4416344 -0.86397433 -1.3046216 1.7070748 1.7822603 1.9980884
-0.11840627 -0.68337953 -1.964326 -0.7261664 2.3707054 1.6254596 1.9784536 -1.312571
-0.45144343 -1.1402522 0.83949244 -0.8501629 0.48985273 0.015845222 -1.636206 0.6571976
00000000: 741a 5f3f c41c babf 83ad 873f 996a 2940
00000010: fc5c a03f 0128 933f 086f d43f b8a8 4540
00000020: caf8 4940 3618 0b3f bd43 1cc0 6c2d 5dbf
00000030: d7fd a6bf 6d81 da3f 1b21 e43f 5cc1 ff3f
00000040: fd7e f2bd f6f1 2ebf 096f fbbf 0be6 39bf
00000050: a3b9 1740 0f0f d03f f83d fd3f 5402 a8bf
00000060: 9823 e7be c9f3 91bf fae8 563f 47a4 59bf
00000070: facd fa3e d7cd 813c 336f d1bf 1a3e 283f

conv1.bias f4 [32]
-1.7848366 -1.7038087 1.7980833 -2.7388952 -0.5891503 1.6475176 -0.5276141 -3.7485254
-2.8196812 -0.06891724 -0.41371375 -4.050661 0.28757578 -1.9792593 -2.5328243 1.0388621
-2.2428794 -0.7249903 -1.8783592 0.8942875 -0.7970761 -1.796145 -0.73866653 -0.6197909
-2.0698953 -1.7368214 -5.912665 -0.43567637 -1.6966177 0.38520053 -0.6500832 -1.6973321
00000000: 8775 e4bf 6716 dabf 9827 e63f 0f4a 2fc0
00000010: 8ed2 16bf dbe1 d23f b811 07bf d7e7 6fc0
00000020: a875 34c0 7b24 8dbd 4ad2 d3be 049f 81c0
00000030: 223d 933e 5e58 fdbf cb19 22c0 6ff9 843f
00000040: 568b 0fc0 f798 39bf 136e f0bf 07f0 643f
00000050: 2e0d 4cbf 14e8 e5bf 4019 3dbf 9eaa 1ebf
00000060: 2a79 04c0 2a50 debf 8d34 bdc0 f910 dfbe
00000070: c52a d9bf 0139 c53e da6b 26bf 2e42 d9bf

conv1.lin.weight f4 [32, 272]
1.4760853 -1.6787318 -0.7530548 -2.2851138 -2.01835 -0.8320291 -2.2113535 -1.102196
-2.6412094 -0.9200743 -1.3970371 -0.76634645 -1.2725996 -0.7408562 -2.4649394 -2.1066372
-2.8828561 -2.6613054 -1.7346988 -2.892271 -0.92659616 -3.253169 -0.576267 -2.8103683
-2.896748 -2.1585233 -2.450737 -2.834923 1.5133326 -2.0721498 0.14326227 -0.82646644
0.23245078 1.1885588 -1.133495 -1.5032045 -0.12839612 -1.0253849 -1.8643967 -0.6115234
-1.7881937 -0.67641544 -1.6952623 0.8760521 -2.2964056 -1.7261304 -1.534478 -1.0239924
-3.4955752 -2.514909 -2.5329778 -2.019762 -1.7621384 -0.6493249 -2.5957608 -0.027475782
-0.32647443 -2.7694051 -3.597878 -0.38527036 0.009792736 -2.7034144 -3.5387294 -1.933323
-0.5703383 -2.1067421 -2.858495 -2.4462466 -2.5524952 -0.985687 0.062081408 -1.694321
-2.1525078 -1.118992 -1.5683937 -0.72502357 0.18432954 1.2972493 -0.2018688 -2.7915533
-1.6866959 -1.4564732 -1.0857172 -1.6691343 -0.6809903 -2.7397041 0.060189385 -0.73195505
-0.7688254 -2.3939462 0.68859917 -1.539293 1.1868631 0.2327406 0.2945187 -2.2910018
0.05938942 0.11734763 -0.46946588 -1.4986659 -0.6663098 -1.9093523 1.242769 -2.158852
-1.8531264 -1.6690613 -1.4780658 -1.6747494 0.10383273 -0.5121698 -2.0533183 -0.48620817
-3.1829262 -0.8880399 -0.5100943 1.0863426 -0.44657624 -0.27290568 -2.7244887 0.018690802
1.2040458 -3.4248838 -1.9066886 0.82376736 -0.2010506 2.1710613 0.7790485 0.22949426
0.46048725 -0.34083354 -2.5847776 2.0383832 -2.4011843 -0.60189027 0.35672852 0.19979848
-0.53622055 6.2284 0.046725843 0.78637475 0.12674159 -1.4214332 0.56632847 0.974885
-0.5075618 -1.2059209 -0.088407464 0.5009961 -3.112483 0.345943 7.710308 -0.090966366
-0.26049763 1.0765058 0.22423327 -1.1845238 -1.3068823 -0.9866055 -1.6618716 -0.2839878
-0.10020451 1.1976641 -2.056878 -1.6381627 -1.0041573 -0.2952592 -0.95245886 0.10317326
0.0758825 -2.274369 1.1219172 -0.12153312 1.4691027 -3.2082572 -1.7395962 0.8477112
-2.624876 1.0507594 0.2407841 -1.4539706 1.7913845 1.1814065 -0.20291473 -0.78760064
1.1883959 1.0808725 1.427022 3.4199884 -0.34360692 -2.4216855 1.1947567 -2.43533
-0.559931 -0.7714184 4.425334 0.54615545 -1.2141366 -0.5961495 -0.15479049 -2.9167428
-3.594803 -0.22041447 1.8074089 -2.290922 -0.16134322 -1.7280883 -0.6692574 -0.6817584
0.025157422 -1.5748371 -3.010025 0.24354352 -0.49446237 4.2634864 -0.45808676 -2.2657893
-1.3566164 -1.2976089 -0.65773743 -1.5022306 -2.4588547 -2.2073255 -3.6661956 1.0056142
-0.11651481 -0.7402308 -1.1434197 0.042748097 -2.8304453 -0.7815575 -1.0724659 0.8434919
-0.9082192 -0.21098717 -0.82497424 -0.7467303 -2.0112238 0.18554196 -1.4290466 0.63228476
-0.8549192 1.7697405 -0.8101173 -1.9808177 -0.24275415 -2.5297418 -0.5503887 0.34032726
-2.0048928 -0.12369397 -2.5787513 -1.9793105 -3.0776634 -0.24627468 -0.00669664 -1.2792298
00000000: 5df0 bc3f afe0 d6bf 33c8 40bf 4e3f 12c0
00000010: a52c 01c0 dcff 54bf d186 0dc0 c214 8dbf
00000020: 9309 29c0 fd89 6bbf 1dd2 b2bf 482f 44bf
00000030: 8be4 a2bf c0a8 3dbf 91c1 1dc0 25d3 06c0
00000040: b780 38c0 d452 2ac0 9c0a debf f81a 39c0
00000050: 6835 6dbf ec33 50c0 3c86 13bf 13dd 33c0
00000060: 5264 39c0 3f25 0ac0 e0d8 1cc0 616f 35c0
00000070: e2b4 c13f 1a9e 04c0 58b3 123e 4e93 53bf
00000080: 9407 6e3e b222 983f 5d16 91bf 0169 c0bf
00000090: 467a 03be d03f 83bf 8da4 eebf cc8c 1cbf
000000a0: 88e3 e4bf 9029 2dbf 5bfe d8bf f344 603f
000000b0: 4ff8 12c0 d7f1 dcbf c669 c4bf 2f12 83bf
000000c0: 81b7 5fc0 45f4 20c0 4f1c 22c0 c843 01c0
000000d0: c08d e1bf 283a 26bf f220 26c0 e414 e1bc
000000e0: a827 a7be ef3d 31c0 a243 66c0 2842 c5be
000000f0: b671 203c be04 2dc0 8b7a 62c0 2177 f7bf
00000100: b101 12bf ddd4 06c0 95f1 36c0 4e8f 1cc0
00000110: 155c 23c0 fc55 7cbf 1349 7e3d 83df d8bf
00000120: b0c2 09c0 213b 8fbf 20c1 c8bf 259b 39bf
00000130: e2c0 3c3e 440c a63f b2b6 4ebe cfa8 32c0
00000140: a7e5 d7bf b76d babf c8f8 8abf 31a6 d5bf
00000150: 6155 2ebf 5057 2fc0 2589 763d 6861 3bbf
00000160: bed1 44bf 6a36 19c0 0948 303f 8e07 c5bf
00000170: 21eb 973f 8d53 6e3e 28cb 963e c69f 12c0
00000180: 5242 733d f453 f03d d55d f0be 49d4 bfbf
00000190: 4793 2abf a865 f4bf 0e13 9f3f a22a 0ac0
000001a0: 3f33 edbf cda3 d5bf 4331 bdbf 305e d6bf
000001b0: 41a6 d43d 8f1d 03bf 9169 03c0 47f0 f8be
000001c0: 10b5 4bc0 9556 63bf 8a95 02bf 460d 8b3f
000001d0: a4a5 e4be 4bba 8bbe 065e 2ec0 741d 993c
000001e0: 2c1e 9a3f 4c31 5bc0 5f0e f4bf 6be2 523f
000001f0: 35e0 4dbe abf2 0a40 b96f 473f 8b00 6b3e
00000200: fcc4 eb3e bc81 aebe ff6c 25c0 df74 0240
00000210: 01ad 19c0 7b15 1abf 1fa5 b63e f997 4c3e
00000220: c045 09bf 0e4f c740 9963 3f3d db4f 493f
00000230: 8cc8 013e 86f1 b5bf e7fa 103f 1092 793f
00000240: 92ef 01bf 9e5b 9abf f90e b5bd 4841 003f
00000250: ec32 47c0 711f b13e d8ba f640 934c babd
00000260: f25f 85be f1ca 893f 689d 653e 7a9e 97bf
00000270: eb47 a7bf 2e92 7cbf 35b8 d4bf d966 91be
00000280: 0638 cdbd 0f4d 993f e4a3 03c0 51af d1bf
00000290: 3a88 80bf 372c 97be 58d4 73bf 814c d33d
000002a0: 4968 9b3d 438f 11c0 fc9a 8f3f 5be6 f8bd
000002b0: 8f0b bc3f 1654 4dc0 17ab debf 9a03 593f
000002c0: f8fd 27c0 497f 863f 1b90 763e b51b babf
000002d0: 164c e53f 5438 973f e1c8 4fbe 32a0 49bf
000002e0: 5b1d 983f 085a 8a3f a8a8 b63f 17e1 5a40
000002f0: 3fed afbe e5fc 1ac0 caed 983f 72dc 1bc0
00000300: a357 0fbf ad7b 45bf 569c 8d40 d8d0 0b3f
00000310: d468 9bbf 419d 18bf 6681 1ebe eaab 3ac0
00000320: 4111 66c0 55b4 61be 2d59 e73f 779e 12c0
00000330: 2837 25be ff31 ddbf 7454 2bbf b887 2ebf
00000340: f016 ce3c 4394 c9bf 40a4 40c0 7963 793e
00000350: 2c2a fdbe 7b6e 8840 598a eabe b102 11c0
00000360: 9ba5 adbf 0c18 a6bf 7b61 28bf 1849 c0bf
00000370: e05d 1dc0 d244 0dc0 f3a2 6ac0 f7b7 803f
00000380: 519f eebd c47f 3dbf 945b 92bf a118 2f3d
00000390: 0426 35c0 2714 48bf 9046 89bf 16ef 573f
000003a0: 0e81 68bf 050d 58be 8331 53bf b829 3fbf
000003b0: e4b7 00c0 b6fe 3d3e 00eb b6bf 6add 213f
000003c0: fcdb 5abf db86 e23f d963 4fbf 6f8b fdbf
000003d0: 8b94 78be 4ae7 21c0 46e6 0cbf 603f ae3e
000003e0: 2a50 00c0 4453 fdbd 430a 25c0 0c5a fdbf
000003f0: 70f8 44c0 6e2f 7cbe 7d6f dbbb cdbd a3bf

conv2.att_src f4 [1, 1, 272]
-1.6632118 -1.1696717 -1.0922568 -0.2640949 2.1775239 -0.12365967 -3.919414 -4.4693913
-1.7492907 -0.98380774 -4.3458486 -1.2299147 -1.7430037 -1.2161936 -0.56999564 1.896182
-1.4693664 -1.6722257 -3.8170261 -1.7258196 -1.5872064 -1.6379477 -11.022259 2.7773187
-1.9335471 -3.998712 -4.69713 -3.6957958 0.72128177 -2.1081057 -2.4024487 -1.5457207
-0.048412938 -0.9957131 1.1663855 -1.7166569 -1.9800922 -1.7424068 -1.0938395 1.224934
-0.2896696 -0.75400203 -2.648668 -1.0117613 -1.466666 -1.6172495 -5.4014263 0.20806663
-1.575185 0.2663085 0.99382424 -4.8249903 -1.5692204 -0.43276286 -0.26016486 -1.0141829
-5.165392 -1.582398 -5.1228514 3.5206788 -2.7420468 -4.7481036 1.4562888 -1.6096511
-1.4652746 -1.7636617 0.065566875 -11.112639 1.5879575 3.4832032 -3.4910653 -1.7318135
3.1322563 -0.75166756 -0.12495866 0.07258411 0.10082693 1.1634011 -5.7931595 -1.6203297
-5.3683996 0.45297167 3.6500194 -1.5407023 -1.6492071 -0.4045546 1.9983802 -1.5922136
-1.205875 -1.1759695 -1.5198073 -1.6119741 -4.790383 -1.5778382 -3.0779166 -2.9214597
0.4787368 -6.2000933 -6.268199 -1.4948045 -1.6938459 -1.3225259 -1.2984939 -1.2556696
-1.6723862 -1.7067194 -0.41316432 0.8384328 -0.09139123 -1.7437913 0.37954032 -1.3395495
-0.2581877 1.5675427 -0.5823754 1.1124564 0.50431484 -3.8507843 -2.0853198 -0.72447646
-1.5493195 -0.04459931 -0.6716248 -0.95089966 0.6757497 -2.2463574 -0.4459661 -1.6031632
-5.640443 0.76093894 -2.1927733 -8.352126 -6.1797 -0.73982924 -1.7757889 -6.5200667
2.3259907 -1.6445957 -3.6290016 -2.009366 0.0073532523 -0.5545868 -1.5917364 -6.786956
-1.5081767 -1.6528534 -6.2329316 -0.46253458 -4.9313374 0.1019911 -1.7182038 3.2216117
-1.6493734 -4.536313 1.0521747 0.22627114 -7.329502 -0.118967175 -5.7360716 -3.0727172
-0.08688773 -1.372072 -1.6104194 -0.27949116 -3.0881405 -4.2667346 -5.6304164 -1.5505393
4.4365587 -6.9945145 -1.3061702 -0.82891023 6.641844 -0.94276893 -0.94808924 -1.2173377
-1.654127 0.44621122 0.42565107 -1.6629604 0.68374866 -1.6695012 -1.4278034 1.6543541
-0.5717775 3.0573306 -0.11652033 -0.03366652 2.0580647 -2.5541399 -2.9197617 -4.4858646
-4.61812 -1.331915 0.26094988 0.22918181 1.5477047 -1.5579039 -3.7697036 -0.9593283
-1.687038 -1.686956 1.7348073 -0.9732985 -1.4718748 -3.4917777 -0.96541053 -3.7547755
-2.5288048 -1.3193517 -1.0978678 -1.5026019 -0.10463038 -4.579241 -1.649737 1.5778117
0.6542349 -1.5348758 -0.25299034 3.1829994 -4.878127 0.33407763 2.135388 -1.0308349
-1.3484645 1.570466 -2.2030735 0.35453683 0.5414489 -0.8475037 -1.6628085 -1.6922885
-2.2799492 -0.51986283 0.049688563 -0.6161699 1.2781764 -0.22879657 5.774178 -2.9932835
-3.5943048 0.18267415 -1.4943746 -1.5797594 1.7368492 -3.2344813 0.48073882 -3.168481
-8.810495 -0.7636106 -1.277626 -0.035862178 -6.8617682 -1.4952453 -1.418498 -1.5726808
00000000: 20e4 d4bf cdb7 95bf 12cf 8bbf 7237 87be
00000010: 8d5c 0b40 4841 fdbd aed7 7ac0 4105 8fc0
00000020: c2e8 dfbf d3da 7bbf 3111 8bc0 d86d 9dbf
00000030: bf1a dfbf 3bac 9bbf 3ceb 11bf 17b6 f23f
00000040: 3314 bcbf 7e0b d6bf 284a 74c0 a8e7 dcbf
00000050: 9429 cbbf 45a8 d1bf 2c5b 30c1 97bf 3140
00000060: 797e f7bf e6ea 7fc0 e44e 96c0 eb87 6cc0
00000070: eca5 383f 34eb 06c0 b8c1 19c0 2dda c5bf
00000080: a54c 46bd 0ee7 7ebf 1f4c 953f 6abb dbbf
00000090: a973 fdbf 3007 dfbf ef02 8cbf a3ca 9c3f
000000a0: 934f 94be 4706 41bf c783 29c0 6581 81bf
000000b0: b6bb bbbf 0802 cfbf 7cd8 acc0 6b0f 553e
000000c0: a99f c9bf 9659 883e 446b 7e3f 5266 9ac0
000000d0: 37dc c8bf 1893 ddbe 5434 85be bfd0 81bf
000000e0: e44a a5c0 058c cabf 66ee a3c0 cd52 6140
000000f0: b27d 2fc0 77f0 97c0 ac67 ba3f 0c09 cebf
00000100: 1e8e bbbf abbf e1bf ed47 863d 5fcd 31c1
00000110: 3142 cb3f cdec 5e40 9d6d 5fc0 11ac ddbf
00000120: e376 4840 496d 40bf 53ea ffbd faa6 943d
00000130: 597e ce3d 54ea 943f 9061 b9c0 f766 cfbf
00000140: eec9 abc0 e7eb e73e eb99 6940 bc35 c5bf
00000150: 3819 d3bf c821 cfbe ecca ff3f a8cd cbbf
00000160: 1d5a 9abf 2b86 96bf 0c89 c2bf 2b55 cebf
00000170: d14a 99c0 9af6 c9bf 96fc 44c0 32f9 3ac0
00000180: fd1c f53e 2a67 c6c0 1695 c8c0 c155 bfbf
00000190: f1cf d8bf 8748 a9bf 0c35 a6bf c8b9 a0bf
000001a0: c010 d6bf c875 dabf 468a d3be 88a3 563f
000001b0: 532b bbbd 8e34 dfbf 1c53 c23e 5c76 abbf
000001c0: 2e31 84be 3da5 c83f 8e16 15bf f964 8e3f
000001d0: c71a 013f 4073 76c0 e175 05c0 4a77 39bf
000001e0: 1a50 c6bf c4ad 36bd 9aef 2bbf 296e 73bf
000001f0: effd 2c3f 52c4 0fc0 ab55 e4be 7434 cdbf
00000200: 827e b4c0 e5cc 423f 6656 0cc0 4fa2 05c1
00000210: 1ac0 c5c0 7365 3dbf 0d4d e3bf 63a4 d0c0
00000220: 08dd 1440 1d82 d2bf 9041 68c0 7499 00c0
00000230: 8df3 f03b 67f9 0dbf 05be cbbf be2e d9c0
00000240: ef0b c1bf b390 d3bf 2d74 c7c0 55d1 ecbe
00000250: 84cd 9dc0 b6e0 d03d 1aee dbbf e32e 4e40
00000260: ab1e d3bf 7a29 91c0 a9ad 863f 9fb3 673e
00000270: 488b eac0 10a5 f3bd e68d b7c0 66a7 44c0
00000280: 32f2 b1bd 0ea0 afbf 3922 cebf 7719 8fbe
00000290: 18a4 45c0 1789 88c0 5f2c b4c0 1278 c6bf
000002a0: 4af8 8d40 10d3 dfc0 9630 a7bf 7633 54bf
000002b0: fc89 d440 4e59 71bf fab5 72bf b9d1 9bbf
000002c0: 6fba d3bf cc75 e43e f0ee d93e e3db d4bf
000002d0: 270a 2f3f 37b2 d5bf 43c2 b6bf e0c1 d33f
000002e0: 0360 12bf 4eab 4340 36a2 eebd e8e5 09bd
000002f0: 55b7 0340 0777 23c0 60dd 3ac0 348c 8fc0
00000300: a4c7 93c0 317c aabf 399b 853e a3ae 6a3e
00000310: 301b c63f 6569 c7bf d342 71c0 8a96 75bf
00000320: dcf0 d7bf 2dee d7bf 2a0e de3f 172a 79bf
00000330: 6566 bcbf 4979 5fc0 2525 77bf 3e4e 70c0
00000340: f0d7 21c0 84e0 a8bf ef86 8cbf 4255 c0bf
00000350: 7448 d6bd 2489 92c0 952a d3bf bcf5 c93f
00000360: f07b 273f cf76 c4bf f387 81be 43b6 4b40
00000370: 9e19 9cc0 390c ab3e 32aa 0840 66f2 83bf
00000380: 7c9a acbf 0805 c93f 28ff 0cc0 da85 b53e
00000390: 659c 0a3f 01f6 58bf e9d6 d4bf e99c d8bf
000003a0: b0ea 11c0 bb15 05bf 3c86 4b3d 50bd 1dbf
000003b0: 499b a33f a649 6abe 11c6 b840 f591 3fc0
000003c0: 1709 66c0 ef0e 3b3e ab47 bfbf 8e35 cabf
000003d0: 1351 de3f be01 4fc0 6623 f63e 65c8 4ac0
000003e0: caf7 0cc1 fc7b 43bf 4089 a3bf 38e4 12bd
000003f0: 9b93 dbc0 3364 bfbf 5891 b5bf 9b4d c9bf

conv2.att_dst f4 [1, 1, 272]
1.8845332 -1.8734359 1.8891306 1.8004582 0.16426487 1.6322553 -1.6479962 -2.8672519
2.0327787 1.66068 -1.6908014 -3.0615182 1.7509063 1.7736092 -2.9012988 1.656472
-1.4460083 1.7740576 -1.3384331 1.8902985 -1.6555101 1.7779709 -3.0428584 2.7312522
-1.4689503 -1.6482008 -1.6850848 -1.9366827 -2.8739815 1.0846391 -2.8390553 1.9748856
1.4678595 -2.5407586 1.4303797 2.030142 -1.6796618 1.7429422 1.8598785 2.8947012
-0.73681957 1.650741 -1.6680409 0.5206332 1.7641178 1.8617377 -1.5109271 -0.10499672
1.8196738 2.7667189 0.7462199 -1.4345218 1.8978114 1.9139665 -1.6352781 -0.032259967
-3.0356815 1.7370625 -1.5817696 3.1352131 -0.12943631 -1.7171232 0.8756015 1.7792389
-1.7761009 2.0564065 1.8509362 -2.9725373 0.5120054 3.324773 -3.183919 -1.2214588
1.1790642 1.7414511 1.7362896 -0.89615357 1.695158 2.9655313 -1.4861357 1.9702389
-2.784621 2.20795 1.156857 1.7462916 1.7006501 1.771604 2.9512138 1.787211
-3.1313765 1.9127659 1.8964331 1.7915652 -1.7691697 1.9327397 -1.1130651 -1.7459955
-1.6190606 -1.7513046 -2.5349123 1.8711843 1.6844671 2.0148153 1.7992386 2.0776508
-0.055138867 2.0598755 -0.5414477 1.0214632 -1.516258 1.7505339 1.8626885 0.2584142
1.7459372 2.2450829 1.7426713 0.014702261 1.7162764 -1.9008517 -3.129189 -2.6797943
1.9096318 -1.3084196 1.7425071 2.0148914 -1.7207396 -2.7605798 1.8755897 1.8541579
-2.6968482 0.27196947 -1.0247307 -3.0762188 -1.7484845 -2.4013634 1.9086024 -1.8241264
2.9352787 1.8034768 -1.8666213 -1.7471815 1.7213616 2.2602737 1.8529752 -2.5442884
1.9914778 1.9072182 -2.73831 1.9629548 -2.9225802 -0.26865572 3.0858088 2.4431365
2.03492 -1.4476013 -2.919149 1.5545864 -2.5368805 -1.4435881 -1.7852254 0.4249621
0.5769475 1.8161963 1.6921614 -1.2400963 -1.534728 -3.1155257 -2.7458632 1.7162358
2.7242734 -2.8061993 1.7642754 0.8183507 2.6883767 -2.7653835 -2.8032374 -1.709111
2.0575576 0.28397515 1.5201116 1.712477 2.7253656 1.8209399 -2.1778574 2.8940713
2.9141412 -1.0600698 1.7196293 -2.0654793 2.8073688 -0.37061995 -2.8281653 -1.8345593
-1.3807281 1.9185456 1.2050003 0.9781497 1.6667134 1.7588722 2.9291465 1.4725586
1.9760097 -1.5295485 1.7201008 -0.73872 1.8074659 1.4213842 -0.4199907 -1.4570383
0.45569965 -1.8353057 -0.47997347 1.8109397 -1.3316532 -1.6330492 1.9778467 1.8517315
1.6770976 1.8327323 0.33429146 3.2973616 -1.6790298 -1.4033368 1.7933145 -3.1753967
1.8708581 2.866869 -2.7346334 1.640175 2.0142684 0.8663135 1.8321913 1.9359074
-1.6642182 1.8425418 2.5836215 1.8959416 2.7656388 1.7390027 3.3005981 -1.6008586
-0.27242193 1.8700751 1.9324863 2.0166671 2.767044 -2.0422778 1.7377013 -1.5981805
-2.811025 1.8727956 0.5670592 1.6514107 -2.6515553 1.7099477 1.6520693 -1.5210958
00000000: 6238 f13f bfcc efbf 08cf f13f 6a75 e63f
00000010: 0d35 283e beed d03f 8af1 d2bf 0e81 37c0
00000020: 0c19 0240 2a91 d43f 2e6c d8bf eaef 43c0
00000030: b31d e03f a005 e33f e1ae 39c0 4607 d43f
00000040: cd16 b9bf 5214 e33f c751 abbf 4df5 f13f
00000050: c1e7 d3bf 8d94 e33f 31be 42c0 d6cc 2e40
00000060: 9006 bcbf 3ef8 d2bf dcb0 d7bf 38e5 f7bf
00000070: 50ef 37c0 74d5 8a3f 15b3 35c0 0dc9 fc3f
00000080: d2e2 bb3f ca9b 22c0 af16 b73f d9ed 0140
00000090: 28ff d6bf bb18 df3f 8010 ee3f c942 3940
000000a0: 35a0 3cbf 7b4b d33f 5d82 d5bf 3848 053f
000000b0: 9dce e13f 6c4d ee3f 0f66 c1bf 8508 d7bd
000000c0: 12eb e83f ec11 3140 4408 3f3f 699e b7bf
000000d0: 7ceb f23f dbfc f43f cb50 d1bf 0723 04bd
000000e0: 9b48 42c0 1058 de3f 6d77 cabf 55a7 4840
000000f0: f48a 04be b1ca dbbf 6b27 603f 1abe e33f
00000100: 4657 e3bf 2a9c 0340 7aeb ec3f 0d3e 3ec0
00000110: c912 033f 15c9 5440 54c5 4bc0 c358 9cbf
00000120: 93eb 963f dfe7 de3f bd3e de3f 526a 65bf
00000130: f0fa d83f 44cb 3d40 b239 bebf ca30 fc3f
00000140: 3b37 32c0 0e4f 0d40 e413 943f 7c86 df3f
00000150: e7ae d93f ebc3 e23f b0e0 3c40 54c3 e43f
00000160: 7968 48c0 83d5 f43f 52be f23f 0252 e53f
00000170: 2774 e2bf 0464 f73f eb78 8ebf c87c dfbf
00000180: 613d cfbf c02a e0bf 013c 22c0 f882 ef3f
00000190: 9e9c d73f bcf2 0040 734d e63f 3bf8 0440
000001a0: 4bd9 61bd 00d5 0340 519c 0abf 4ebf 823f
000001b0: be14 c2bf 7f11 e03f 946c ee3f de4e 843e
000001c0: df7a df3f 70af 0f40 da0f df3f c1e1 703c
000001d0: f2ae db3f 1c4f f3bf a244 48c0 c081 2bc0
000001e0: d16e f43f 4b7a a7bf 790a df3f fbf3 0040
000001f0: 3241 dcbf 57ad 30c0 5313 f03f 0c55 ed3f
00000200: 2999 2cc0 953f 8b3e 602a 83bf c5e0 44c0
00000210: 57ce dfbf f0af 19c0 154d f43f f97c e9bf
00000220: 9bdb 3b40 54d8 e63f 72ed eebf a5a3 dfbf
00000230: 9455 dc3f 53a8 1040 4b2e ed3f 9fd5 22c0
00000240: bfe8 fe3f ba1f f43f 7940 2fc0 1a42 fb3f
00000250: 8e0b 3bc0 3e8d 89be e47d 4540 595c 1c40
00000260: 213c 0240 004b b9bf 56d3 3ac0 b0fc c63f
00000270: 405c 22c0 7fc7 b8bf 4482 e4bf a294 d93e
00000280: d5b2 133f 1f79 e83f bf98 d83f 7abb 9ebf
00000290: f871 c4bf c664 47c0 39bc 2fc0 9dad db3f
000002a0: 7f5a 2e40 c598 33c0 c7d3 e13f 6e7f 513f
000002b0: 5d0e 2c40 0bfc 30c0 3e68 33c0 26c4 dabf
000002c0: 06af 0340 3165 913e 0493 c23f 7232 db3f
000002d0: 646c 2e40 8f14 e93f 0462 0bc0 7738 3940
000002e0: 4a81 3a40 5eb0 87bf d01c dc3f d030 04c0
000002f0: eeab 3340 e6c1 bdbe a900 35c0 d7d2 eabf
00000300: b3bb b0bf e792 f53f 733d 9a3f 0568 7a3f
00000310: dd56 d53f b922 e13f 2377 3b40 cd7c bc3f
00000320: e3ed fc3f 3fc8 c3bf 432c dc3f c11c 3dbf
00000330: 0b5b e73f ebef b53f 0509 d7be 3b80 babf
00000340: 7751 e93e 4ceb eabf 15bf f5be dfcc e73f
00000350: 9d73 aabf c207 d1bf 152a fd3f 8a05 ed3f
00000360: 22ab d63f f996 ea3f 4028 ab3e f907 5340
00000370: 73ea d6bf 8aa0 b3bf 548b e53f b339 4bc0
00000380: 4778 ef3f c87a 3740 3c04 2fc0 41f1 d13f
00000390: c6e9 0040 b9c6 5d3f 3f85 ea3f d0cb f73f
000003a0: 1a05 d5bf 69d8 eb3f 0e5a 2540 37ae f23f
000003b0: 3a00 3140 a497 de3f 003d 5340 efe8 ccbf
000003c0: e37a 8bbe 9f5e ef3f b65b f73f 1311 0140
000003d0: 4017 3140 aeb4 02c0 ff6c de3f 2e91 ccbf
000003e0: d5e7 33c0 c4b7 ef3f cb2a 113f 6d61 d33f
000003f0: 15b3 29c0 91df da3f 0277 d33f 44b3 c2bf

conv2.bias f4 [272]
-1.4846141 0.37172738 -5.1485457 -7.590265 4.901836 -2.8692052 2.956888 2.2224388
-1.5215657 -1.4153892 3.5657752 1.6615801 -1.5134183 -1.5306817 -0.22806348 2.8976076
3.9200497 -1.5126694 -1.3383455 -1.4625207 -2.7106895 -1.4913621 -4.741047 -5.195915
-0.23219478 2.7324977 2.371143 4.319282 -1.9341469 1.7607713 1.0764921 -1.4929352
0.6232562 0.5294436 0.13909486 -1.4553024 1.2617685 -1.4963317 -4.8704414 -3.5291872
2.5010097 -6.164975 2.5495088 2.346797 -1.5127572 -1.504588 4.092232 1.5559473
-1.4951245 1.7866211 -2.2433705 2.9683807 -1.4687142 -7.8522496 1.7391351 -0.572512
0.31262803 -1.5324242 -0.33820382 -1.6406393 -4.165874 1.875499 -2.5704381 -1.5016377
2.1702006 -1.492875 -3.9250002 -8.059079 -0.34576115 1.1708183 2.405469 4.6675215
1.2578262 -6.398782 -8.568298 -1.9247316 -1.4260255 -0.8101706 5.513263 -1.5189856
4.2061677 -1.2540398 -1.0597135 -1.489798 -1.4857328 -7.512925 -1.8426398 -1.4705405
-0.34501666 -5.616283 -1.5020337 -1.495665 4.1721253 -1.4644724 -3.4920814 -0.111629665
2.6443303 -3.2812748 0.9801007 -1.5095421 -1.4682142 -1.4828056 -1.4756864 -4.478555
1.4850155 -1.484307 1.4822048 -0.6297591 -3.3072636 -1.5293328 -0.27065098 1.522096
-6.420182 -0.07316203 -6.686367 0.1771338 -0.16819862 2.672364 1.1514193 0.85549396
-1.4729483 0.75125587 -6.395715 -1.6275271 3.8693109 1.7369058 -1.7805305 -1.4916884
5.5188904 -0.7885403 3.287966 1.8822073 4.3519845 0.39308608 -1.4817485 0.3134873
-1.2039506 -1.4814659 2.2501233 -1.322129 1.5769919 -1.2134875 -1.504921 0.9478342
-1.5121115 -1.4965181 -3.501581 -7.5124474 3.3994458 1.6933693 0.9076454 5.9959426
-1.4736459 1.8216332 -1.9867761 -5.9355474 0.7596895 -1.4357239 4.8535643 -0.5721448
0.7269648 -1.451927 -1.492083 0.3855032 2.4485912 -4.037421 -1.824265 -1.48227
-1.7083985 0.5095507 -1.4619187 0.7627881 -5.808372 -0.4602154 -0.6938086 0.9451165
-1.4764636 6.63421 -6.60971 -1.5383743 0.43363592 -1.5095301 1.5555019 2.313488
-2.826389 -2.6291316 -8.362377 -1.6244217 -1.3379399 2.7092254 0.97936785 0.053865306
-0.39064485 -1.5547098 -0.19803049 -0.5185897 -5.961527 -1.5232022 2.7069902 1.0114872
-1.5486602 5.808657 -0.7816315 2.6826625 -1.4942787 0.7155394 4.1948285 6.049651
3.1689937 1.107705 2.649132 -1.4878482 -3.2701807 4.6782193 -1.5026872 0.16628817
-5.5620685 -1.4973316 2.8985803 -1.1751733 1.5565016 0.6471425 2.0111527 -0.2516208
-1.4540733 -1.0106916 0.79540306 -8.67928 3.7037804 1.5361139 -1.5101889 -1.5510514
-1.0617542 -4.87934 4.7524047 -5.22687 -1.0139593 -2.4189174 -3.1913314 0.09941065
-0.025759112 1.6232383 -1.4928838 -1.4791179 4.9432883 3.465479 0.1930158 4.422819
0.97705805 -5.3631854 -0.1831773 -0.67515236 0.5606887 -1.4975264 -1.4553237 1.0420333
00000000: d607 bebf 0d53 be3e e3c0 a4c0 73e3 f2c0
00000010: d7db 9c40 0fa1 37c0 a73d 3d40 703c 0e40
00000020: aac2 c2bf 792b b5bf a935 6440 a8ae d43f
00000030: b1b7 c1bf 61ed c3bf 7989 69be 6772 3940
00000040: 18e2 7a40 279f c1bf e84e abbf e133 bbbf
00000050: f07b 2dc0 f4e4 bebf a8b6 97c0 f044 a6c0
00000060: 78c4 6dbe 3ee1 2e40 cfc0 1740 8f37 8a40
00000070: 2092 f7bf f460 e13f 7eca 893f 8018 bfbf
00000080: b88d 1f3f 9e89 073f e26e 0e3e 5947 babf
00000090: a181 a13f cc87 bfbf a8da 9bc0 34de 61c0
000000a0: 8b10 2040 7a47 c5c0 272b 2340 ec31 1640
000000b0: 07a2 c1bf 5796 c0bf 91f3 8240 4829 c73f
000000c0: 3d60 bfbf 00b0 e43f 6293 0fc0 f3f9 3d40
000000d0: d4fe bbbf a145 fbc0 fb9b de3f 2590 12bf
000000e0: c810 a03e 7a26 c4bf 0d29 adbe 7800 d2bf
000000f0: d74e 85c0 5a10 f03f 0f82 24c0 aa35 c0bf
00000100: 91e4 0a40 8716 bfbf 3433 7bc0 fdf1 00c1
00000110: 9b07 b1be 60dd 953f 34f3 1940 565c 9540
00000120: 7300 a13f d2c2 ccc0 c017 09c1 9b5d f6bf
00000130: 0188 b6bf 5767 4fbf a76c b040 1f6e c2bf
00000140: ed98 8640 6084 a0bf b1a4 87bf b3b1 bebf
00000150: 7e2c bebf e269 f0c0 9fdb ebbf ac3a bcbf
00000160: 06a6 b0be 97b8 b3c0 a442 c0bf f371 bfbf
00000170: 0d82 8540 d573 bbbf 437e 5fc0 189e e4bd
00000180: b53c 2940 6800 52c0 e1e7 7a3f ad38 c1bf
00000190: 71ee bbbf 93cc bdbf 4be3 bcbf 5350 8fc0
000001a0: fd14 be3f c6fd bdbf e3b8 bd3f e437 21bf
000001b0: 35aa 53c0 2dc1 c3bf c492 8abe 0bd4 c23f
000001c0: 2272 cdc0 f9d5 95bd b8f6 d5c0 9062 353e
000001d0: 423c 2cbe 0308 2b40 b561 933f a701 5b3f
000001e0: 9289 bcbf 4e52 403f b3a9 ccc0 cf52 d0bf
000001f0: caa2 7740 ee52 de3f 6ce8 e3bf a5ef bebf
00000200: c09a b040 c7dd 49bf 096e 5240 2bec f03f
00000210: 7543 8b40 9442 c93e efa9 bdbf 6881 a03e
00000220: 0e1b 9abf ada0 bdbf 0502 1040 863b a9bf
00000230: dfda c93f 8f53 9bbf 40a1 c0bf 43a5 723f
00000240: df8c c1bf e88d bfbf e719 60c0 f865 f0c0
00000250: 8590 5940 53c0 d83f 735b 683f c3de bf40
00000260: 6ea0 bcbf 472b e93f ae4e febf 01f0 bdc0
00000270: 037b 423f cdc5 b7bf 6650 9b40 1578 12bf
00000280: 5d1a 3a3f bed8 b9bf 93fc bebf ad60 c53e
00000290: b8b5 1c40 8e32 81c0 8481 e9bf 06bb bdbf
000002a0: cdac dabf ea71 023f 2720 bbbf 1546 433f
000002b0: 2fde b9c0 5aa1 ebbe 719d 31bf 28f3 713f
000002c0: c2fc bcbf 734b d440 bf82 d3c0 73e9 c4bf
000002d0: 8705 de3e 4838 c1bf b01a c73f 3010 1440
000002e0: 8fe3 34c0 b143 28c0 4ccc 05c1 0ded cfbf
000002f0: 9d41 abbf f363 2d40 dab7 7a3f dea1 5c3d
00000300: 9a02 c8be bb00 c7bf 81c8 4abe 4bc2 04bf
00000310: d4c4 bec0 4af8 c2bf 543f 2d40 6a78 813f
00000320: 7f3a c6bf 85e0 b940 0119 48bf beb0 2b40
00000330: 8644 bfbf 972d 373f 093c 8640 be96 c140
00000340: cbd0 4a40 47c9 8d3f 618b 2940 cf71 bebf
00000350: a44a 51c0 f9b3 9540 0e58 c0bf 7247 2a3e
00000360: 77fc b1c0 90a8 bfbf 5782 3940 146c 96bf
00000370: 723b c73f 22ab 253f bab6 0040 71d4 80be
00000380: 131f babf 585e 81bf 899f 4b3f 55de 0ac1
00000390: bd0a 6d40 619f c43f df4d c1bf da88 c6bf
000003a0: 90e7 87bf 8e23 9cc0 b313 9840 8542 a7c0
000003b0: 6bc9 81bf 8bcf 1ac0 c63e 4cc0 d097 cb3d
000003c0: c604 d3bc 46c6 cf3f d116 bfbf bc53 bdbf
000003d0: 6b2f 9e40 68ca 5d40 efa5 453e bc87 8d40
000003e0: 7a20 7a3f 379f abc0 d592 3bbe c9d6 2cbf
000003f0: 4b89 0f3f f2ae bfbf 0c48 babf 5961 853f

conv2.lin.weight f4 [272, 32]
-0.89021915 -2.2320058 3.453205 -2.0145884 1.3566046 -3.7215629 -0.6277699 -0.37747276
-2.9870925 0.37232685 -0.44143707 -0.4970268 0.5703481 0.29047063 0.17167498 -2.3227904
-0.5682781 -0.031830836 -0.47668058 -1.461793 0.1274103 3.342775 -1.8003772 -1.6707304
-0.6488099 -0.36330444 0.98705494 -2.0643647 -0.06844669 -1.3400272 -2.41966 0.43351588
-1.3720561 2.2419806 2.8450074 -0.47344998 0.69415796 -1.3085097 -2.7343326 -1.5967177
-1.2451928 0.36641124 -0.772677 -2.91189 -0.34191635 -0.60479426 0.2911813 -4.208993
0.4768201 0.22872141 -0.25429514 -0.57144606 1.1352735 -0.9048685 2.2302127 -2.1647172
0.6735447 4.102579 -0.122352034 -1.433554 0.8914926 2.1003344 -0.2672821 3.661096
-3.0818968 -3.4710314 0.11474238 0.5031265 1.1705118 -5.351297 -2.4776206 -0.33695385
-3.420937 0.79135215 -0.3300957 0.93179387 1.321967 -1.6996613 -0.83149594 -3.146982
-0.46088067 1.8901635 -0.46973002 1.4092926 -2.6820738 2.219756 0.08620313 -1.6402217
-0.47749564 -0.25680616 -1.4165772 -3.4027822 0.7270693 0.4013509 -1.1741245 1.1212549
-2.9279222 -1.1745338 -0.82486635 -3.52517 -1.5528083 -3.5398324 -2.90061 -1.3695451
-3.3361 0.8227351 -0.19631045 2.060669 2.0406668 0.20126554 -1.1203259 -1.4471235
-0.6342577 1.6135484 -0.60081893 2.3707664 -4.6591635 1.5950575 -2.4212286 -1.9126052
-0.52783644 -0.22123908 -2.7224991 -1.8428302 0.41632444 1.452471 -2.231585 2.3571174
-0.88102436 -4.1942153 3.600742 -1.1567152 -3.8586767 -0.44247517 4.7909493 0.16112469
-7.227512 1.763259 -3.314887 -2.9517539 -0.032422688 0.8490715 -0.23229402 0.45644498
0.5409527 -2.0712767 -0.30590904 1.3024681 3.60263 -0.6761948 -6.1542296 -9.071745
0.6720198 -0.24206075 -0.41009647 -1.6712294 -1.2625836 -0.20077984 -2.6606245 -3.798463
-4.237016 2.4929798 -3.203357 -0.08181775 -0.9876201 0.24783808 -2.3915389 -0.52288836
-1.1952823 -0.32047236 -1.6838198 -0.96478504 -1.331299 -3.4447458 0.21256009 -5.677811
-0.5924435 -0.71632594 -0.40252006 1.7653639 -0.88482064 -5.3146296 -0.5061881 -2.4972355
-0.63734025 -0.3944973 -3.9074054 -3.6567194 0.4114884 3.0198123 -0.96511036 2.3179305
-1.0247343 -1.9126084 5.8626623 0.47139853 -0.52195704 -3.9746776 -0.8881776 0.20261294
6.7854614 -1.1554241 -1.754947 -0.28628764 0.3534646 0.84634 1.2446116 -2.049987
0.59301245 -1.7526984 -0.5693625 -1.0803065 2.2241428 5.850123 2.3887053 -3.0447934
0.7374012 0.5941488 4.968066 -1.7191081 -5.7746515 -0.6187359 -1.9103246 -0.15426779
3.192571 -4.9519396 4.9778676 2.4921992 1.4781766 -4.870681 -0.42788512 0.9429604
6.1470037 -1.9708205 -1.1635369 3.28318 0.5078707 0.2798572 2.1517565 -3.5435197
-0.50698924 0.0011235182 -0.4570705 -5.253621 2.8374896 5.908536 2.0259066 0.6772202
-0.47853127 -1.247697 4.236395 2.5780885 -2.8396611 -0.94760466 -0.90381473 -0.870992
00000000: 67e5 63bf 2fd9 0ec0 5001 5d40 04ef 00c0
00000010: 38a5 ad3f 162e 6ec0 87b5 20bf 1c44 c1be
00000020: 862c 3fc0 a0a1 be3e 0a04 e2be 4c7a febe
00000030: 5502 123f 91b8 943e 91cb 2f3e 99a8 14c0
00000040: ac7a 11bf 0d61 02bd 7a0f f4be 081c bbbf
00000050: d877 023e 07f0 5540 c372 e6bf 7eda d5bf
00000060: 6818 26bf 0a03 babe a2af 7c3f 8d1e 04c0
00000070: c72d 8cbd 0386 abbf b6db 1ac0 cbf5 dd3e
00000080: 899f afbf 9c7c 0f40 9a14 3640 0968 f2be
00000090: 56b4 313f 3f7d a7bf 4eff 2ec0 3f61 ccbf
000000a0: 7a62 9fbf 419a bb3e 29ce 45bf 685c 3ac0
000000b0: a90f afbe ccd3 1abf b715 953e 12b0 86c0
000000c0: c421 f43e f235 6a3e f932 82be 4a4a 12bf
000000d0: a450 913f 76a5 67bf cebb 0e40 ba8a 0ac0
000000e0: 6d6d 2c3f 5448 8340 b493 fabd b37e b7bf
000000f0: dc38 643f e16b 0640 33d9 88be 664f 6a40
00000100: cc3d 45c0 6125 5ec0 0efe ea3d e6cc 003f
00000110: 55d3 953f d33d abc0 5691 1ec0 3785 acbe
00000120: a2f0 5ac0 0e96 4a3f 4e02 a9be 0b8a 6e3f
00000130: 3736 a93f 808e d9bf ebdc 54bf 2768 49c0
00000140: 8df8 ebbe e1f0 f13f 7480 f0be b363 b43f
00000150: 19a7 2bc0 7b10 0e40 448b b03d c9f2 d1bf
00000160: 4f7a f4be 197c 83be 6752 b5bf 2fc7 59c0
00000170: 3721 3a3f dd7d cd3e b649 96bf 4885 8f3f
00000180: 1463 3bc0 2057 96bf 712a 53bf 639c 61c0
00000190: 6cc2 c6bf 9d8c 62c0 98a3 39c0 414d afbf
000001a0: aa82 55c0 c49e 523f 9b05 49be 00e2 0340
000001b0: 499a 0240 8e18 4e3e d766 8fbf 583b b9bf
000001c0: b65e 22bf c188 ce3f 45cf 19bf a3ba 1740
000001d0: de17 95c0 d82a cc3f 69f5 1ac0 3fd0 f4bf
000001e0: 4a20 07bf 7f8c 62be 6d3d 2ec0 dce1 ebbf
000001f0: 7a28 d53e 92ea b93f 4ad2 0ec0 03db 1640
00000200: d08a 61bf 0337 86c0 8f72 6640 3e0f 94bf
00000210: 8ff4 76c0 1b8c e2be 754f 9940 dffd 243e
00000220: c747 e7c0 79b2 e13f 1c27 54c0 89e9 3cc0
00000230: a7cd 04bd c05c 593f 7cde 6dbe 28b3 e93e
00000240: e07b 0a3f cc8f 04c0 1ca0 9cbe 46b7 a63f
00000250: 7d91 6640 1a1b 2dbf 73ef c4c0 de25 11c1
00000260: 7d09 2c3f c6de 77be 2af8 d1be d8ea d5bf
00000270: 579c a1bf 3b99 4dbe ac47 2ac0 051a 73c0
00000280: a395 87c0 fb8c 1f40 cd03 4dc0 1190 a7bd
00000290: acd4 7cbf 44c9 7d3e f90e 19c0 03dc 05bf
000002a0: 03ff 98bf f414 a4be 6887 d7bf 27fc 76bf
000002b0: 0168 aabf b776 5cc0 5aa9 593e a1b0 b5c0
000002c0: 61aa 17bf 2361 37bf 1c17 cebe 72f7 e13f
000002d0: 9b83 62bf 7211 aac0 8b95 01bf b5d2 1fc0
000002e0: bb28 23bf 8dfb c9be ee12 7ac0 b107 6ac0
000002f0: 9cae d23e 9b44 4140 7911 77bf f958 1440
00000300: 7e2a 83bf 5ad0 f4bf ee9a bb40 265b f13e
00000310: fa9e 05bf 1e61 7ec0 9b5f 63bf c479 4f3e
00000320: 8022 d940 f0e4 93bf 1aa2 e0bf 4b94 92be
00000330: 50f9 b43e bda9 583f 6f4f 9f3f fd32 03c0
00000340: aacf 173f 6c58 e0bf bec1 11bf 7c47 8abf
00000350: 5b58 0e40 3534 bb40 8ce0 1840 e5dd 42c0
00000360: 53c6 3c3f 231a 183f 66fa 9e40 bc0b dcbf
00000370: f2c9 b8c0 7a65 1ebf 8485 f4bf 60f8 1dbe
00000380: 1553 4c40 4a76 9ec0 b14a 9f40 3180 1f40
00000390: e434 bd3f 9edc 9bc0 c213 dbbe da65 713f
000003a0: 41b4 c440 d943 fcbf c7ee 94bf 9f1f 5240
000003b0: d003 023f 7149 8f3e 61b6 0940 07c9 62c0
000003c0: 0cca 01bf 0443 933a 2505 eabe aa1d a8c0
000003d0: 6e99 3540 ba12 bd40 74a8 0140 4e5e 2d3f
000003e0: 0d02 f5be 89b4 9fbf 8c90 8740 67ff 2440
000003f0: 02bd 35c0 3896 72bf 6760 67bf 55f9 5ebf
