gnn_recommendation_model.pth (torch, 38360 bytes, 4 tensors)

conv1.bias f4 [16]
00000000: cdee 5240 403f 6140 1c47 5140 45bd 19bf
00000010: 3eae 19bf 5c71 ab3f 86b4 19bf 38bd 19bf
00000020: 15f9 1c40 70af 8240 fcbc 19bf 32c8 1d40
00000030: 1dbd 19bf c2e6 8c40 93bd 19bf 7dbd 19bf
3.2958252 3.5194855 3.2699652 -0.6005443 -0.600315 1.339397 -0.6004108 -0.6005435
2.4527028 4.0839157 -0.6005399 2.465344 -0.6005419 4.4031687 -0.6005489 -0.6005476

conv1.lin.weight f4 [16, 272]
00000000: 8e2c c5c0 901c 1b40 f9d9 2840 eaa8 d7c0
00000010: 3a02 823f 7753 2dc0 87c6 c540 4cae 9240
00000020: ead8 2140 1a5e 6fc0 b297 8b3f ef07 2841
00000030: 83e5 1840 837f 9cbf 4c81 1640 5b8d bd40
00000040: 2bdc 5040 0fa3 1740 115d ba3f 1354 5040
00000050: 0c7a 4040 b5cf 1441 9cce 8941 b3ed 2741
00000060: 3b4e 1341 195a 1241 42f9 2d40 f3ba 1d41
00000070: 6713 8bc0 c067 ad3f 29cf 93bf fbb8 65c0
00000080: e776 98c1 6c6d 49c1 cb79 bc3f 0739 933e
00000090: bd5d 23bd f56b 83bf 080b 02c0 b414 9440
000000a0: 2386 4041 ec80 ab40 9e50 65c0 c670 28c0
000000b0: d493 ed3f fe80 a8c0 03c7 8040 6109 8cbd
000000c0: ce9c 0341 c0fd bd40 b9fb 6540 6aed 9d40
000000d0: 096d c040 c3d1 b03f e24b 983b a125 7d3f
000000e0: 43a2 333f 3915 7640 bf26 a1c0 685c 84c0
000000f0: 2d9c 74c1 4073 1241 1baa bf40 f5cf 383f
00000100: 6b89 4f41 e0fe 4c40 0947 54c1 4eb3 6140
00000110: e034 6241 7a23 b1bd b2ed 4c41 f46d d041
00000120: e945 4341 2cc5 9040 ef2c 5c3f dc60 3d3f
00000130: ecd5 cfc0 594a 88c0 06d5 393e 3746 90c0
00000140: 2b65 c740 1816 0ec0 9891 dac0 f920 21c1
00000150: 4d1f acc1 9d8b a6bc c6e8 e3c0 1212 5841
00000160: f30c 9c40 754b 1f3f c9bd c0c0 d77e 2840
00000170: ad9b 0fc1 64cf 08c1 ab34 02c1 9030 f4bf
00000180: cb1b d5c0 6d84 9ac1 bbf3 4ac0 3e1a a5bf
00000190: e83e c7c0 0abe 1941 c12f 0fc1 9347 43c0
000001a0: 2d3b f8bf e698 39c0 dffe f640 513a 9a40
000001b0: 5311 1c3e 2a79 a2c1 5406 7440 1092 1ac1
000001c0: c4c9 0041 fd92 0cc1 9592 1bc0 b97e 00c1
000001d0: 050e 2ac0 cddc 8ac0 1fda e1c1 a314 7841
000001e0: fbc1 9cbf 8576 97c0 959e a641 41e1 53bf
000001f0: 3125 a4be 84f9 2ec1 1c66 89c1 c0b1 93c1
00000200: 2e59 98c1 7617 2dc0 e482 9040 3843 9fc1
00000210: c390 3940 0642 0dc1 f13f 96c0 5e7f e1c0
00000220: 14c5 a3bf 4e5f b5bf 86a1 ccc1 d623 65c1
00000230: 3600 af41 8b0a 6040 c7a1 66c1 8f66 51c0
00000240: f86b c8c1 0f3b cd3e bda4 f540 1ef3 aa41
00000250: 749d c940 f410 c0c0 e7b4 9ec0 daae 3d41
00000260: d6c6 2c41 e650 0641 98a6 3f40 b006 4841
00000270: 17a6 f6be 3246 8bc0 4e2b 31c1 b94a 6cbf
00000280: 7ae2 e341 8ea5 a6c0 7eb5 0541 827a b6c0
00000290: 3341 a7c0 5cbd 8fc0 9a94 98c0 b67e 8ebf
000002a0: ba65 0440 a91c 0dc1 5f48 6f3e c2b3 0041
000002b0: f479 d53d b77b c4c0 7120 2e41 8330 1941
000002c0: 8fb0 87c0 8a96 b8c1 3828 22c2 39a7 85c1
000002d0: 8a07 31c2 623b 3ac0 cfe4 0241 0e9b 8140
000002e0: 2484 4040 4130 d0c0 3fd9 9fc1 f6a0 8041
000002f0: 2d3e b03f e40c bcc0 b24e 08c0 4452 8fc0
00000300: 23cd de40 a177 c041 806c ee40 675a 9640
00000310: 04fd af3f a99d 79c0 94be 73c0 d59c 89bf
00000320: da92 5640 ee5f 4941 2ee3 da3e 40c7 5e41
00000330: e386 48c0 982f ca40 d218 e140 70d9 18c1
00000340: f343 c8c0 b182 06c1 ba78 4241 e51c 2141
00000350: e348 18c1 b113 d841 a3b3 3641 5702 1240
00000360: 67c7 8841 9e58 8340 f46a 8841 f4a9 c4c0
00000370: 5faa 8941 a3d0 a2c0 7878 7e40 9b28 7dc1
00000380: d555 d941 2210 9941 992a b5bf e456 8040
00000390: 1f3c 5fc1 c3d8 c741 db09 f1c0 7b82 3d42
000003a0: 2f2d 0540 043e cf41 a624 9241 4f3f 7a40
000003b0: 5f7c 0642 e44e cb41 48a4 e2c0 f31f 08c1
000003c0: d3a2 90c0 071b d2c0 dd88 8ac1 b83e acc0
000003d0: 4046 5cc1 f790 03c1 404d c3c0 ca51 1e40
000003e0: c45b 73c1 51f1 3dc0 134e 90c1 eade 6040
000003f0: fed0 f1c0 6193 57c1 5162 0ac2 452d 09c1
-6.161689 2.4236183 2.638304 -6.7393694 1.015693 -2.7082193 6.1804843 4.5837765
2.5288644 -3.7401185 1.0905669 10.501937 2.3890083 -1.2226413 2.3516417 5.9235053
3.263438 2.3693273 1.4559652 3.2551315 3.0074492 9.30071 17.225883 10.495532
9.206599 9.1469965 2.7183385 9.858142 -4.3461185 1.3547287 -1.1547595 -3.5894153
-19.058058 -12.589214 1.4724668 0.28754446 -0.039884318 -1.0267321 -2.0319233 4.627527
12.032748 5.3594875 -3.5830455 -2.6318831 1.8560739 -5.265746 4.0242934 -0.068377264
8.225782 5.9372253 3.593489 4.935231 6.01331 1.3814014 0.004647718 0.9888554
0.70169467 3.8450453 -5.0359797 -4.13628 -15.288129 9.153137 5.989515 0.7219232
12.971049 3.2030563 -13.267343 3.526569 14.137909 -0.08649345 12.808031 26.053688
12.204568 4.524069 0.86006063 0.7397592 -6.4948635 -4.2590756 0.18147668 -4.508571
6.2310996 -2.2200985 -6.8302727 -10.07055 -21.515284 -0.020330245 -7.1221647 13.504412
4.8765807 0.62224513 -6.023167 2.6327417 -8.975507 -8.550632 -8.137858 -1.907732
-6.6596427 -19.314661 -3.1711261 -1.2898633 -6.226429 9.608896 -8.949159 -3.0512435
-1.9393059 -2.8999572 7.718612 4.8196187 0.15240984 -20.309162 3.8128862 -9.66066
8.049259 -8.785886 -2.4308217 -8.030938 -2.6571057 -4.339453 -28.231504 15.505038
-1.2246698 -4.7332177 20.827433 -0.82765585 -0.32059625 -10.935917 -17.174858 -18.461792
-19.043545 -2.704557 4.515978 -19.907822 2.8994606 -8.828619 -4.6953053 -7.0467978
-1.2794518 -1.416971 -25.578869 -14.321249 21.875103 3.5006435 -14.414496 -3.2718847
-25.05272 0.4008412 7.6763597 21.36871 6.3004704 -6.0020695 -4.959583 11.855188
10.798544 8.394751 2.994543 12.501633 -0.48173591 -4.352319 -11.073072 -0.9230152
28.485584 -5.2077093 8.35681 -5.7024546 -5.226709 -4.491865 -4.76814 -1.1132419
2.068709 -8.819497 0.23367451 8.043886 0.10423651 -6.140102 10.88292 9.574344
-4.2403026 -23.073505 -40.539276 -16.706652 -44.257362 -2.9098744 8.180861 4.0501776
3.0080652 -6.5058904 -19.981077 16.078594 1.3768975 -5.8765736 -2.1298032 -4.478792
6.962541 24.058413 7.4507446 4.6985354 1.3749089 -3.9002478 -3.808507 -1.0750986
3.352713 12.58592 0.4275145 13.923645 -3.1332328 6.31831 7.03428 -9.553085
-6.2582946 -8.406907 12.154474 10.069554 -9.517795 27.009615 11.418857 2.2813928
17.097364 4.1045675 17.052223 -6.145746 17.208189 -5.0879683 3.9761028 -15.822413
27.16691 19.132877 -1.4153625 4.010607 -13.952178 24.98084 -7.532453 47.377422
2.0808828 25.905281 18.267895 3.910114 33.621456 25.41352 -7.082554 -8.5078
-4.519876 -6.565799 -17.316828 -5.382656 -13.767151 -8.222892 -6.10318 2.473742
-15.209904 -2.9678538 -18.038122 3.5136056 -7.5567617 -13.473481 -34.596012 -8.573552

conv2.bias f4 [272]
00000000: 8d5d 68be 146b 91bf 11f3 033f 9b8e 90bf
00000010: 9031 8ebf 2bdd 81c1 97f0 90bf 941e 64c1
00000020: 270e 173f f757 f9c0 0d21 4f40 3a08 8fbf
00000030: fef7 90bf 15d9 0dc1 650e 45c1 42d8 8fbf
00000040: fa4c 0cc1 bd66 abc0 d002 40bf 1f53 e2bf
00000050: 7010 92bf b853 1ec1 b479 9740 e3a7 36c1
00000060: f4db e740 8c2e a840 7e9a 1740 ff83 91bf
00000070: ee14 6fc0 dc64 3641 a2b5 8ebf 58e4 10c1
00000080: 78a8 8ebf 0604 8ebf 614d 4d41 f0f4 be40
00000090: 4151 1041 e4c2 92bf 0470 8cbf 8816 8e41
000000a0: c510 9d3f f226 23c1 8788 4941 911c d73e
000000b0: 0dd5 8641 e6ad 10c1 e5ef 8ec0 2076 8fbf
000000c0: a91a 8cbf 37f5 8ebf 3682 2dc0 4923 91bf
000000d0: fdf1 6641 0ade 91bf 6b79 9241 df23 23c0
000000e0: 8599 8ebf d39f 09c0 3a20 90bf ca07 8cbf
000000f0: 2e65 23c0 f9bb 8fbf f837 80c1 1aae 55c1
00000100: 0051 85c1 48af d940 7b1a 8ebf c439 8fbf
00000110: aafc 4ec1 8422 8cc0 9da4 90bf 5412 8341
00000120: b1e9 92bf 59a8 8fbf d586 8fbf e042 21c1
00000130: bde6 a3c1 5e71 cf3f d7b4 a541 c86a 8fbf
00000140: 9d10 56c1 3e3f a2c1 e2ce 8fbf b623 90bf
00000150: a42b 91bf 7294 8cbf 6662 4740 0066 2bc1
00000160: 602b 8ebf becb 91bf efae 94c1 2f3b 03bf
00000170: 9ba4 90bf 179f 8cbf 8b0e ed3e c04d b0c0
00000180: 5731 8abf 925f 8ec1 e0b5 5641 1752 4fc1
00000190: 6faa 2b41 b5bf b6c0 2f69 a440 39b2 19c0
000001a0: f031 92bf e777 97c1 ff50 75c1 bdc9 1941
000001b0: ab9c 8ebf d8ab 25c1 fb1b 75c1 6465 93bf
000001c0: f81c 8dc1 aedf 8ebf 2519 e240 a3a0 8ebf
000001d0: bcd4 aa3f b7d0 90bf 518d 54c1 56b9 93c1
000001e0: 7795 c8c0 35eb 91bf d812 1bc1 8e59 97c0
000001f0: 5fcf 90bf 4fb7 7a40 1c2f 8cbf 5a1b 8bbf
00000200: 40ae 20c1 8fa2 e6c0 d604 28c1 de25 90bf
00000210: 6a69 92bf a758 92bf cdaa 08c1 0304 3dc0
00000220: 76b3 bcc0 b9bb 90bf c52b 1140 551e b741
00000230: 0679 9a41 52fd 02c0 91dc 7fc1 9545 90bf
00000240: 55e0 5bc1 1871 d841 066c 2cc0 5f9c 59c1
00000250: 1d4d 6bc1 32e5 91bf 2911 87c0 6913 eac0
00000260: d320 bb3f 3303 9ec1 28af 8cbf 264c 92bf
00000270: 5598 4b41 c0bb c540 9b1d ba41 9954 1fc1
00000280: 6a77 8bbf a83e 4d41 53d5 90bf 0b39 5ec0
00000290: f57a 79c1 e9dd 953f 1a6b 8cbf 2e0c 4c41
000002a0: 9bbf 91bf 5d45 8ebf 624b e840 3bfe af40
000002b0: ddec 8cc1 cc36 2bc1 bcd5 7241 79aa 8cbf
000002c0: c24c 90bf 6bd8 8ec1 1f02 8fbf b13b 9240
000002d0: ae8f 0041 5652 1041 3ea1 8ebf a337 7541
000002e0: 6b16 91bf 3de6 21c1 39a9 91bf 3cf6 8dbf
000002f0: 555a aa41 e5ce 2ec1 4080 91bf 9468 8ebc
00000300: bf91 2c41 3b7d 90bf fb6f 6ac1 4a82 8fbf
00000310: b2f2 7441 af25 0dc0 4cce 0fc1 889b 10c1
00000320: 7bfa 91bf b74b 92bf 4989 9841 3fe8 48c1
00000330: e43d 90bf e619 44c1 e0c7 5dc0 35c1 8ebf
00000340: e7a6 ebc0 0053 85c1 1909 d040 7a0d 8cbf
00000350: f6f9 91bf 53bf 8dbf d63f 3f3f 18a1 8fc1
00000360: 09c6 8ebf 94ba 9dc1 bee1 50c1 b923 8fbf
00000370: 58f8 8fbf 1a7d 3341 b731 73c1 f474 46c1
00000380: c83a 94bf 3a3e 8ec1 6885 b440 7946 8ebf
00000390: 57ee e43f 8307 eac0 e10c ba40 e48e 8ac1
000003a0: ea69 6cc1 278c 8ebf 0550 8fbf e1f8 8bbf
000003b0: 87ab abc0 b05d eb40 8c57 8ebf cbbf 8ebf
000003c0: dcbc 1141 3073 8ebf 975f ed40 5445 90bf
000003d0: 0af6 64c1 e82f 11c1 7666 8d41 3258 05c1
000003e0: dbd0 5d40 ac28 9c40 a7d2 8ebf 4706 25c1
000003f0: 1789 fdc0 6632 9ac0 0422 c140 1889 8bbf
-0.22691937 -1.1360803 0.51542765 -1.129352 -1.1108875 -16.232992 -1.1323422 -14.257465
0.5900597 -7.791988 3.2363923 -1.1174386 -1.1325681 -8.865499 -12.316014 -1.1237872
-8.768793 -5.3562913 -0.7500429 -1.7681617 -1.1411266 -9.895439 4.7336063 -11.415988
7.2455997 5.255682 2.3688045 -1.1368407 -3.7356524 11.399624 -1.114918 -9.055748
-1.1145163 -1.1094978 12.831391 5.9673996 9.019837 -1.1465726 -1.0971684 17.761002
1.2270743 -10.197008 12.595832 0.42013982 16.854029 -9.042456 -4.466784 -1.1207924
-1.0945636 -1.1168584 -2.7110724 -1.1338893 14.434079 -1.1395886 18.309286 -2.5490644
-1.11406 -2.15038 -1.1259835 -1.0939877 -2.5530505 -1.122924 -16.027328 -13.355005
-16.66455 6.8026466 -1.1101831 -1.1189504 -12.936686 -4.3792133 -1.1300236 16.38395
-1.1477567 -1.1223251 -1.1213022 -10.078827 -20.487665 1.6206472 20.7133 -1.1204462
-13.379056 -20.28088 -1.1235011 -1.1260898 -1.1341443 -1.0982802 3.1153808 -10.712402
-1.1106987 -1.1390302 -18.585417 -0.5126218 -1.1300234 -1.098605 0.46300158 -5.509491
-1.0796307 -17.796665 13.419403 -12.957541 10.72911 -5.7109017 5.13784 -2.4015028
-1.142149 -18.933546 -15.332274 9.6117525 -1.1141561 -10.354454 -15.319331 -1.1515317
-17.639145 -1.1162012 7.0655694 -1.1142772 1.3346171 -1.1313695 -13.284501 -18.465496
-6.268245 -1.1399904 -9.692101 -4.729682 -1.1313285 3.9174383 -1.0951877 -1.0867722
-10.0425415 -7.2073436 -10.501181 -1.1261556 -1.143842 -1.1433305 -8.541699 -2.9533699
-5.896907 -1.1307288 2.2682965 22.88981 19.309093 -2.0467114 -15.991349 -1.1271235
-13.742269 27.055222 -2.6940932 -13.600677 -14.7063265 -1.139807 -4.2208447 -7.3148694
1.4619392 -19.751562 -1.0990953 -1.1429489 12.72469 6.1791687 23.264456 -9.958154
-1.0895817 12.827797 -1.1315101 -3.4722316 -15.592519 1.1708347 -1.0970185 12.752974
-1.1386598 -1.1114918 7.259202 5.499784 -17.615656 -10.700878 15.177181 -1.0989524
-1.1273425 -17.855673 -1.1172522 4.5697865 8.035078 9.020102 -1.1142957 15.326083
-1.1334966 -10.1187105 -1.1379768 -1.109077 21.294107 -10.925511 -1.1367264 -0.017383851
10.785583 -1.1288217 -14.652339 -1.1211636 15.309252 -2.205425 -8.987865 -9.0379715
-1.1404566 -1.1429356 19.067034 -12.556701 -1.1268888 -12.256323 -3.4653244 -1.1152712
-7.364124 -16.665527 6.5011106 -1.0941613 -1.1404407 -1.1074013 0.7470678 -17.95366
-1.1154186 -19.716103 -13.055113 -1.1182777 -1.1247663 11.218042 -15.199637 -12.403553
-1.1580439 -17.780384 5.641285 -1.1115257 1.7885236 -7.313417 5.814072 -17.31977
-14.775858 -1.1136521 -1.1196295 -1.0935327 -5.3646884 7.3551865 -1.1120467 -1.115228
9.108608 -1.1128902 7.4179187 -1.1271157 -14.310068 -9.074196 17.67503 -8.334032
3.4658725 4.879965 -1.1158036 -10.314033 -7.9229846 -4.818652 6.0354023 -1.0901213

conv2.lin.weight f4 [272, 16]
00000000: 5715 4cc0 ab8b 6740 acaa bf40 c962 053f
00000010: 3943 11bf 4b93 bf40 632f 283f 9e3c ff3e
00000020: dc26 ce40 1801 cebf 344e 093f d564 6ec0
00000030: 3e45 e53e 8924 98c1 1c2f 3c3f 783f 223f
00000040: 2f83 8abf b003 a3bf 4929 9fbf 35d6 fdbe
00000050: bef7 17bf 9306 9dbf 9bd4 07bf 37b0 00bf
00000060: 16b9 a3bf dff3 93bf d613 1abf ad79 96bf
00000070: d48c efbe 0978 a0bf 22a0 23bf 3c2a fcbe
00000080: dfdc 1741 cbcd db40 5816 85c0 2243 263f
00000090: 826c 253f b81b 5cc0 81c2 3c3f e5ac 273f
000000a0: bc18 18c1 2d04 0341 e2da 313f b70e b93f
000000b0: 577e 273f 7bc5 6dc0 97bb 0c3f 9c05 363f
000000c0: a95c 93bf dfdc a7bf 34c9 99bf 2e8b 33bf
000000d0: 3521 e8be 85b1 a5bf 1129 30bf fae5 1dbf
000000e0: b779 9cbf 02e0 92bf 84ed 3dbf 44bc 8cbf
000000f0: 26f3 f0be 21ca abbf 5248 febe 8602 3bbf
00000100: df20 92bf 64e6 9cbf 7bef a5bf 3b58 14bf
00000110: f8bc 26bf 92c4 94bf ca39 00bf bb8d 3cbf
00000120: 09ee 94bf d283 a2bf 8dfe 05bf 9196 abbf
00000130: 8426 f7be f918 a9bf a2aa e9be b54f f2be
00000140: 1e8e dfc0 6963 6c40 76df 47c1 7d77 223f
00000150: 1ea8 0fbf eb66 6540 806d 1dbf 33b7 85be
00000160: 4a3d b140 1eb9 abc0 3e9d f43e 3d1c f140
00000170: 9bc8 e13e 45df 6040 383b 203f b315 2f3f
00000180: 5e3f a0bf 1248 a8bf 73f5 9cbf 4791 12bf
00000190: 80da 1abf 3bc4 a0bf a4ab 30bf eaf6 26bf
000001a0: 78a9 8dbf 86a5 8fbf f645 06bf 5ce8 8cbf
000001b0: 1429 28bf 18c8 adbf 1312 16bf 0ac6 f7be
000001c0: 6310 4141 3b34 fdbf b925 34c0 5d63 3d3f
000001d0: 73fe 173f 7d3b a0bd af1b 323f a026 3a3f
000001e0: b22f f040 e3dc 2bc1 f615 0e3f 7c25 6940
000001f0: 4e4d 213f 7509 1dc0 6f6c 113f 1a80 f23e
00000200: d368 c7c0 6795 9041 a2f7 e640 a91d 2f3f
00000210: 776a 11bf e864 1341 a01e 0abf ab57 35bf
00000220: ec2e aac1 e9a6 52c1 7b4a 2fbf eaa1 02c1
00000230: 6276 06bf 24ec eec0 d9a4 12bf 3082 393f
00000240: fb0a 0941 01bf 36bf 1d82 2640 dd35 373f
00000250: f266 f4be 2d10 9440 79b0 2f3f c1e7 fb3e
00000260: aed5 8340 f67f 9dc0 db38 e93e 11bd 80c0
00000270: da0a 3a3f f963 e4c0 1185 0f3f c68f 0e3f
00000280: 4870 0741 67b3 ee40 89da 91bf 62bd 023f
00000290: 27ca fabe 070e 9d40 bf47 f03e 3864 323f
000002a0: 81f3 d8c1 d95c e240 1dd2 143f 9028 d0c0
000002b0: 1787 063f 93d4 8a40 628f 183f c9e8 ff3e
000002c0: beea 9abf f7ab 98bf 6fe8 a6bf de9c 0bbf
000002d0: de55 02bf 552f 9bbf ddcb 29bf d394 23bf
000002e0: dabe 8ebf 7e67 a1bf 3db1 38bf 5fdd a8bf
000002f0: 2e6e 12bf 23f7 9ebf 8a22 0fbf 7f01 26bf
00000300: bbfa 8bbf 87b2 acbf aa79 90bf 1c3f 37bf
00000310: da75 edbe 868b 9bbf f023 1bbf f69e 24bf
00000320: 9783 adbf 5dcb a0bf 0339 1cbf cdbf 9bbf
00000330: d381 19bf 8234 8cbf 9b5f 07bf d134 05bf
00000340: d445 31c1 10ad 1641 3ffa 1541 c60e 033f
00000350: c001 1b3f 1c69 b4bf c856 1c3f 1e50 2c3f
00000360: 00dd 97c0 a8f2 f140 9fbf 323f 8d3f 80c0
00000370: bad5 313f 9e5d b840 650a 1e3f e000 1d3f
00000380: 9618 e340 cf9e 7540 6154 bf40 eeb3 243f
00000390: 1644 1cbf dae5 80c0 01f9 003f e932 243f
000003a0: c3a9 cc40 b06f 9fbf bbaa 163f 380e 4fc0
000003b0: 9e11 343f e725 37be e6fb fe3e b692 113f
000003c0: 3f69 a6bf 354a 95bf 30de 9bbf 8131 25bf
000003d0: 395b 16bf 763f 98bf 2987 32bf 3108 1fbf
000003e0: 2216 a3bf b923 99bf 0368 09bf a499 aebf
000003f0: 7fe3 f3be f52f 8bbf efd5 2cbf 7238 2ebf
-3.1888025 3.6178997 5.989584 0.5210386 -0.567432 5.98673 0.65697306 0.49850935
6.4422436 -1.6094084 0.53634953 -3.7249043 0.4477939 -19.01784 0.73509383 0.63378096
-1.0821284 -1.27355 -1.2434474 -0.4957749 -0.593624 -1.2267631 -0.53058785 -0.5026888
-1.2790859 -1.1558799 -0.6018652 -1.1755883 -0.4678713 -1.2536632 -0.6391622 -0.49250972
9.491424 6.868871 -4.1589775 0.64946187 0.64618695 -3.4391918 0.7373429 0.6549819
-9.506039 8.1885195 0.69474614 1.4457616 0.65427154 -3.7151783 0.5497374 0.7110231
-1.1512653 -1.311428 -1.2014527 -0.70134246 -0.45337835 -1.29448 -0.6881266 -0.6167904
-1.2224644 -1.1474612 -0.74190545 -1.0994954 -0.47060508 -1.342106 -0.4966455 -0.73050725
-1.1416281 -1.225781 -1.2963709 -0.5794713 -0.65132093 -1.1622488 -0.5008818 -0.73653764
-1.1635143 -1.2696478 -0.5234154 -1.3405324 -0.48271573 -1.3210746 -0.45637995 -0.47326437
-6.9860983 3.6935675 -12.492056 0.63463575 -0.561159 3.5844066 -0.6149521 -0.26116332
5.5387316 -5.3663473 0.47776216 7.534697 0.44098362 3.5136273 0.6259036 0.68392485
-1.2519338 -1.3146994 -1.2262405 -0.57252926 -0.60489655 -1.2559885 -0.690119 -0.6522051
-1.1067343 -1.1222389 -0.524505 -1.100841 -0.6568768 -1.3576689 -0.5862133 -0.4839328
12.066501 -1.9781564 -2.8148024 0.7397974 0.59372634 -0.078238465 0.6957349 0.7271519
7.505822 -10.741427 0.5550226 3.6429129 0.6300858 -2.4537022 0.5680608 0.4736336
-6.231546 18.07295 7.2177286 0.6840463 -0.5680308 9.212135 -0.5395298 -0.70836896
-21.272911 -13.16575 -0.68473023 -8.16453 -0.5252439 -7.4663258 -0.5728279 0.72464275
8.565181 -0.713852 2.6016915 0.71566564 -0.4773479 4.6269746 0.6862865 0.49200252
4.119834 -4.92187 0.4555119 -4.0230794 0.7267281 -7.1372037 0.5606242 0.5568813
8.464912 7.4593997 -1.1394817 0.51070225 -0.48982355 4.9079623 0.46929738 0.6968417
-27.118898 7.073834 0.5813311 -6.5049515 0.5254988 4.338449 0.59593785 0.49982288
-1.2102888 -1.192748 -1.3039683 -0.54536235 -0.5091227 -1.212382 -0.66326696 -0.6389896
-1.1151993 -1.2609708 -0.72145444 -1.3192557 -0.5719937 -1.241917 -0.5591208 -0.6484603
-1.0935892 -1.3491982 -1.1287129 -0.7158067 -0.46378976 -1.2151954 -0.6060171 -0.64305055
-1.3555783 -1.2562062 -0.6102449 -1.2167908 -0.5996372 -1.0953524 -0.5288026 -0.52033716
-11.079548 9.417252 9.373595 0.5119442 0.60549545 -1.4094577 0.6106992 0.6730975
-4.7457275 7.560871 0.6982364 -4.0077577 0.69466746 5.761428 0.6173461 0.6132946
7.096751 3.837818 5.97905 0.6433705 -0.6104139 -4.028058 0.5037995 0.6414018
6.395723 -1.2455959 0.58854264 -3.2352428 0.7033938 -0.17885552 0.49801558 0.5686449
-1.3000869 -1.1663271 -1.2177181 -0.6452866 -0.58732945 -1.1894367 -0.6973749 -0.62121874
-1.2741129 -1.1964027 -0.53674334 -1.3640637 -0.47634503 -1.087401 -0.67513937 -0.6805488
